ESNLinear/checkpoints/ETTh1_336_24_DLinear_ETTh1_ftS_sl336_ll48_pl24_dm512_nh8_el2_dl1_df2048_fc1_ebtimeF_dtTrue_Exp_0/checkpoint.pth (torch, 99814 bytes, 6 tensors)

Linear_Seasonal.weight f4 [24, 336]
00000000: 1d3c 3d3c 8a18 b63b 6dcc fa3b b92c 12bb
00000010: 2778 343c 9e33 94bc 233a 9cbb e5d1 77bb
00000020: 3423 ad3b 8e5b 003c 1c3a 133b d167 08bc
00000030: 30bb 89ba 3b83 8339 5832 9d3c 3155 85bc
00000040: c9d3 b53b 7a20 71bc b12f 013c 18ca 48bc
00000050: c84e 9c3c d0c5 7a3c d97c 1dbd c794 963b
00000060: 47de 053d 55fb 403c 15fc 3abb ffee 2c3c
00000070: 0a66 f33b b886 7ebc 1091 30bc 1f58 e33c
00000080: 8535 eabb 448e 8b3b 79a7 c7bb 46b2 84bb
00000090: d698 3a3c a5be ad3c 9e66 2bbc a5a7 95bc
000000a0: 73ec 253c 9bb7 763c f037 34bc 4b71 7b3c
000000b0: 208e 52ba 79fb 0dbb 9fb5 60bc 283c 20bb
000000c0: 5fd6 063d 789a 96bb b456 32bc 17f6 ae3b
000000d0: f172 4d3c 84d0 9ebc 7683 4e3c eb66 bc3b
000000e0: c4ad 293c b20a 1b3c a2fe 113c e08b 02bd
000000f0: 59c0 4ebc 227f e63c 8e9c ccbb 406c 453b
00000100: a8a5 383c 05c3 1bbc 6227 3c3c b798 99bc
00000110: 0b01 933c df90 04bc a6ef 0fbc c0db 94bb
00000120: cdf3 6c3c 8a4c f03b a436 683b 9b20 b03b
00000130: 917f 063c 1667 77ba 2851 dfbb 8c83 023c
00000140: 276f e33b 6f58 3f3c e33f 633c 3b41 e2bb
00000150: 7923 7c39 8171 86bb 4059 7d3c 345a 633b
00000160: 3898 db3b 888e 5bbb 8fdf e13b 6492 34bc
00000170: b8d9 2b3c 3614 cfbb a093 afbb a9ff ec3b
00000180: 0c97 84ba 7a38 9f3c 3958 b7bb 030d 3e3c
00000190: dbc7 373b c555 ac3c 472d 1cbc 3173 993c
000001a0: 1a3b b8bc 062e b7bb 0002 a03b 8c66 523a
000001b0: b276 383c b99e 0e3c 53b1 a1ba 80c4 2fbc
000001c0: cb75 de3b a453 c73c 34ff b1ba 6b1f 49bc
000001d0: 35ae 133b 8ce7 bd3c b858 fabb 01ed 8bbc
000001e0: 31bd 103c 4ea8 7c3c 83f4 85bb 4d7a 823c
000001f0: 3eb5 78bc 45b0 cf3b dee5 bc3b 10cf ef3a
00000200: d925 8a3b aee3 673c 269a 68bc 8e48 653b
00000210: c802 a9ba 4cf6 73bc 81bd a13c 634b 84bc
00000220: 9e50 7c3a 1edc 603c 85f0 91bb f199 563c
00000230: e748 bbbb 53d5 473b 4a3a 13bb eb00 a0bc
00000240: e5e5 bb3c 6cbe 74bb 9156 2d3b 51a9 133c
00000250: a37e d5bc e998 903a cb7f 563c 4cfa 16ba
00000260: c4a9 9c3a 542a b13b 6243 a2bb 6dbd afbb
00000270: 6de4 9d3c 34c2 1abd 686b a83c d60f 8b3c
00000280: 8bc8 cdba b012 acbc f0ef ab39 8a18 193c
00000290: 667d 88bc 1cfa 753c f045 0e3b 6a63 d5bc
000002a0: 5897 943c 5c8a 7f3c 6144 823c e5d9 9abc
000002b0: 3e61 673c 1152 153c 2a42 15bc a0a7 fcbb
000002c0: 9745 b73c 689e 3a3c 678c 8abc 846c f5ba
000002d0: 15d4 f33c 9478 9fba 68c9 8f3b 9f27 ac3b
000002e0: 4d9f 873c 74df b6bb da68 a2bb a039 e83b
000002f0: e346 25bc b52f ae3c 027d 2fbc a1a1 83bc
00000300: 1f09 133d 23d0 9b3c 5499 6fbc 25dd 443c
00000310: 964c 683b 29cf b83b 98cf 6a3c 0104 973c
00000320: cecb 55bc e634 5fbb 17cc b13b 54a6 ff3b
00000330: 4bb4 8f3c 1882 df3b 41cd 8ebc 3fae a2bb
00000340: be87 d6ba 877c c03c 2772 a03c df59 d8bc
00000350: d3c4 2fbc 4746 913c 9e49 3bbc 2218 1abd
00000360: d0d3 023d eb4f e0bb d62e ad3c 23b4 603b
00000370: 2c26 0e3c 79f2 e2bc eb41 12bc 6080 d53c
00000380: 6394 5cbc 9c30 0abc d087 c23c b3ff a2bc
00000390: 58ef b63b 452d 67bc 7f1c 37bb 326a 8a3c
000003a0: 7917 7cbc 3dc3 023c 5701 083a bc08 2abb
000003b0: 56c4 bbbb ee3d 763c c5a2 eabc 6dde aabc
000003c0: 1b32 1a3d 6c27 303c 115a c53a 4db3 5bbb
000003d0: a530 6c3c 0857 f1ba f0ac 4c3c ca29 553b
000003e0: d1ae 4abc 6767 f93b f9fc b63c bb51 8abb
000003f0: a7dd 143b 71b6 8d3c e404 cdbb ccbb ef3b
0.011549977 0.0055571245 0.007653764 -0.0022304489 0.011014975 -0.01809102 -0.0047676726 -0.0037814316
0.0052837376 0.007834328 0.0022465056 -0.008325533 -0.0010508057 0.0002508404 0.019189045 -0.016275974
0.0055489284 -0.014717216 0.007884906 -0.012255214 0.019080535 0.015305951 -0.038449142 0.0045953724
0.032682683 0.011778672 -0.00285316 0.010555028 0.0074279355 -0.015535049 -0.010776773 0.02775198
-0.0071474933 0.0042589027 -0.0060929623 -0.004049572 0.011388978 0.02120907 -0.010461478 -0.018268416
0.010127175 0.015058423 -0.010999665 0.015346835 -0.00080320425 -0.0021664782 -0.013715177 -0.0024449918
0.032919284 -0.004596051 -0.010884929 0.005339395 0.012539611 -0.019386537 0.012604585 0.0057495735
0.01035637 0.009462999 0.008910807 -0.031871676 -0.012619101 0.028136794 -0.0062442487 0.0030124336
0.011269964 -0.0095069455 0.011483999 -0.018749578 0.017944833 -0.008091181 -0.008785164 -0.004542798
0.0144624235 0.007333343 0.003543296 0.0053749806 0.008209125 -0.0009437663 -0.0068150945 0.0079659335
0.0069407406 0.011678799 0.013870212 -0.0069047487 0.00024045807 -0.004102886 0.015463173 0.0034691216
0.0067014955 -0.0033501703 0.0068931053 -0.01102123 0.01048892 -0.006319548 -0.0053581744 0.0072326255
-0.0010115816 0.01943611 -0.0055952338 0.011599782 0.0028042707 0.021036992 -0.009532279 0.018731685
-0.02248912 -0.005590203 0.004883051 0.0008026145 0.011258768 0.008704835 -0.0012336172 -0.010728002
0.0067889444 0.024331875 -0.0013580085 -0.012275557 0.0022534255 0.0231817 -0.0076399706 -0.017080786
0.008834169 0.015420986 -0.004087986 0.015927458 -0.01517993 0.0063381516 0.005764707 0.0018295962
0.0042159376 0.014153404 -0.014196908 0.0034985873 -0.0012894506 -0.014890265 0.019743683 -0.016149228
0.000962505 0.013724355 -0.004453721 0.013098226 -0.0057154777 0.0030492141 -0.0022465163 -0.019531688
0.02293677 -0.0037344946 0.0026449303 0.009012536 -0.026061362 0.0011031899 0.013091992 -0.0005759343
0.001195245 0.0054066572 -0.0049518803 -0.0053631575 0.019273961 -0.037782863 0.020559028 0.016975325
-0.0015700025 -0.021005005 0.0003279443 0.0093442295 -0.016661357 0.015013244 0.0021709166 -0.02604838
0.018138573 0.015596952 0.015901746 -0.018902728 0.014122305 0.009113804 -0.009110013 -0.007710412
0.02237205 0.011390306 -0.016912652 -0.0018724357 0.029764215 -0.0012166672 0.004388023 0.0052537466
0.016555453 -0.005580837 -0.004956347 0.0070869476 -0.0100877015 0.021262983 -0.0107109565 -0.016068282
0.03589737 0.019020146 -0.014623959 0.012015616 0.003544604 0.00563993 0.014331721 0.018434526
-0.013049079 -0.003405863 0.0054259407 0.0078018103 0.017542025 0.0068209283 -0.017431857 -0.0049646194
-0.0016367359 0.02349688 0.019585682 -0.026410041 -0.010728079 0.017733706 -0.011431126 -0.03762067
0.03194028 -0.0068454645 0.021140497 0.0034287057 0.008676093 -0.02770351 -0.008926849 0.02606219
-0.0134631125 -0.008434441 0.023746401 -0.019897318 0.005582731 -0.014109914 -0.002794057 0.016896341
-0.015386456 0.007981119 0.0005188188 -0.0025945147 -0.005730192 0.015029414 -0.028642068 -0.020858014
0.03764544 0.010751586 0.0015056749 -0.003352362 0.014415895 -0.0018412778 0.012492403 0.003252613
-0.012370781 0.0076112035 0.022337424 -0.004221169 0.0022715123 0.017298909 -0.0062566865 0.0073160883

Linear_Seasonal.bias f4 [24]
00000000: 4b1f 703c 31a8 78bc 93d4 5b3c 65f9 0bbd
00000010: 776f 1d3c b677 b4bc 1422 bf3a 489d 893b
00000020: 83e0 efbc df7e 1a3d 6b9d 3fbd 4e78 ee3c
00000030: 165e 063d e7b5 e63b 92bc a6bb 57e8 f0bc
00000040: d990 d3bb 54cc aa3c 814e 5f3c a36b c33c
00000050: 4135 28bb 3f51 80bc 162b c7bc 5a1b 923c
0.014655898 -0.015176819 0.013417381 -0.034173388 0.009609095 -0.022029739 0.00145823 0.0041996576
-0.02928186 0.03771865 -0.046780985 0.0291101 0.03280457 0.0070407274 -0.0050883973 -0.029407663
-0.006456476 0.020849384 0.013629557 0.023855036 -0.0025666507 -0.015663741 -0.024312537 0.017835308

Linear_Trend.weight f4 [24, 336]
00000000: f8cf 6139 70a0 6539 6e89 7d39 a070 6139
00000010: a6cc 6239 c78d 2439 d95a 1939 6686 d038
00000020: 919d 0739 2667 2639 b6fc c438 f41f a838
00000030: 4c93 ea38 5733 ef38 1381 ee38 818b ed38
00000040: 0850 0139 51da 9038 93b6 e438 a483 6d39
00000050: 8050 7039 8cb4 7e39 9c39 6d39 33bc 7139
00000060: 7ec1 9539 8b54 b039 3180 a639 9bd6 9139
00000070: f72c b239 f936 b839 57e9 b739 655f cb39
00000080: 2aa5 d339 d8a0 b539 16d5 8639 4141 8d39
00000090: 5ff2 a139 694b 7439 3b11 5039 711c 3c39
000000a0: 77b5 4539 66c1 fd38 ecd9 1239 203c 1439
000000b0: c42f 6538 73cf f237 f22c fdb7 178f 29b9
000000c0: 4a4e 5ab9 fc14 49b9 209a 7db9 1e1e 6cb9
000000d0: 9414 50b9 846a 76b9 dc3d 65b9 4a16 3fb9
000000e0: 969a 1cb9 d882 16b9 c805 26b9 d51b 11b9
000000f0: 516c 92b8 1a65 beb8 1274 45b8 d766 dd36
00000100: b5a3 5a38 94fa ec37 5745 0739 dd37 2c39
00000110: c52e 2c39 8dc2 3f39 07ff 7c39 e23b 9239
00000120: 64a1 dc39 6a1c dc39 d297 c339 ddf4 d639
00000130: fd21 dc39 3133 ce39 1fb7 d939 2cf4 ac39
00000140: 5e62 c439 5eaa 8d39 2e0b 7639 5e12 8339
00000150: 966d 8639 1061 7739 8d08 4339 a0c8 4c39
00000160: dde8 3239 31b0 2e39 0327 ea38 e113 9838
00000170: ada6 28b8 f29d b7b8 cbf5 12b9 d9af 5fb9
00000180: 5b70 71b9 8443 85b9 27fb 74b9 24bf 83b9
00000190: 8367 8eb9 485d 89b9 1f26 81b9 59f6 99b9
000001a0: 801e 82b9 9cff 80b9 d7b9 81b9 faa9 82b9
000001b0: 8f6a 5eb9 3b26 2eb9 b5f9 4cb9 e616 14b9
000001c0: 1012 39b9 e858 1db9 8d7c 18b9 566c 9db8
000001d0: 14ec 5ab8 1533 9738 eb7d bb38 fa32 a138
000001e0: dfd2 0839 655b 0639 3f30 2039 e01e c638
000001f0: 3b97 a338 9778 b338 e857 2538 12b0 7538
00000200: 14ba 8038 05f6 8e38 245b 2d38 ffb2 b937
00000210: f8bc fb38 e2df c938 02a2 a238 b0fa f138
00000220: 76f8 5738 9844 ca38 be51 ba38 cd93 5138
00000230: 3cdc 7338 d8ee 9e38 1a78 5338 04ef 6b38
00000240: 4c00 0039 9d84 4038 c703 b638 5bed fb38
00000250: 9a0a 5439 8d4c 4d39 7d99 4039 63a4 6a39
00000260: 921b 1c39 61a7 5539 fbe0 6739 af94 2939
00000270: e283 7639 98f3 4f39 2581 6339 7f45 3939
00000280: 360d 3c39 88c0 5839 c058 1439 0b32 bd38
00000290: 3818 2539 b9b6 3e39 d5df 0739 dd51 1039
000002a0: d2b1 3839 8a35 1a39 7c87 4f39 8c07 3139
000002b0: de39 2439 4607 0139 f25a 1039 aec6 1739
000002c0: 0bf9 a638 eb24 1b39 9275 6038 d8f8 17b8
000002d0: 9cc3 6038 f7f5 4438 ffdf 8237 9118 be37
000002e0: 71e6 a038 4220 8838 177a 5038 2b08 1239
000002f0: 8213 2039 deca c538 713f 3038 0bc3 a538
00000300: 6c58 c038 a8f5 9b38 3b9c cc37 b528 de37
00000310: 6720 a937 209a 3e37 1d75 4338 27f5 f135
00000320: fc3c 87b8 5ac7 e2b5 e3b0 7bb8 a052 9fb8
00000330: 0117 2f38 090a 16b8 484c c7b7 69a4 ac37
00000340: 627d f9b6 5822 b0b7 bd37 3cb8 75d2 9c38
00000350: aa1a e036 87c4 9237 c3fb 8538 3545 6138
00000360: 50fa 5d38 3004 9eb3 40f2 0b36 53bf c538
00000370: 9b75 b638 d21a d038 7598 9a38 0896 6538
00000380: d6a6 b438 fc93 3139 bd86 ce38 faac a138
00000390: 65f9 6a39 6182 5939 f148 8c39 bc23 8339
000003a0: cdd0 9139 954c a639 0b1e ca39 234f ee39
000003b0: ed2d c239 1655 dd39 f5ee 003a 7aef f939
000003c0: e572 0a3a 8f19 133a d93f 1a3a 4661 223a
000003d0: 7916 283a 9aef 393a e278 443a aa09 423a
000003e0: 893a 453a f9db 603a 9e82 5c3a 41ae 633a
000003f0: 977e 723a 0cf1 603a 6811 583a f31e 573a
0.00021535147 0.0002189891 0.00024179157 0.00021499628 0.00021629277 0.00015693075 0.0001462506 9.9432466e-05
0.00012933301 0.0001586942 9.3930794e-05 8.016816e-05 0.00011185426 0.00011405971 0.00011372766 0.00011327025
0.00012332213 6.90712e-05 0.00010905894 0.00022651121 0.00022918172 0.00024290587 0.00022623542 0.0002305366
0.00028563658 0.00033632325 0.00031757497 0.0002781645 0.00033984307 0.00035136173 0.00035078332 0.00038790252
0.00040368113 0.00034642848 0.00025717233 0.00026942234 0.00030888894 0.00023297746 0.00019842845 0.00017939672
0.00018854985 0.000121000034 0.00014004827 0.00014136778 5.464234e-05 2.894525e-05 -3.018088e-05 -0.00016170401
-0.00020819265 -0.00019176671 -0.00024185376 -0.00022517933 -0.00019844092 -0.00023500068 -0.00021862186 -0.00018223483
-0.00014934907 -0.00014353858 -0.00015833147 -0.00013838646 -6.981998e-05 -9.078738e-05 -4.707656e-05 6.5982854e-06
5.2127714e-05 2.8250077e-05 0.00012900434 0.00016424009 0.00016420621 0.00018287655 0.00024127598 0.00027891906
0.00042081915 0.0004198284 0.00037306413 0.00040999698 0.00041986993 0.00039329522 0.000415259 0.0003298832
0.00037457322 0.0002702055 0.00023464553 0.00024999952 0.0002564012 0.00023591914 0.00018599835 0.00019529695
0.00017062151 0.0001665957 0.00011165256 7.2516275e-05 -4.020955e-05 -8.7555396e-05 -0.0001401521 -0.00021332446
-0.00023025407 -0.0002541804 -0.00023363215 -0.00025128678 -0.00027161473 -0.00026200176 -0.000246332 -0.00029365977
-0.00024818256 -0.00024604506 -0.0002474326 -0.00024922175 -0.00021211266 -0.00016608175 -0.00019547979 -0.0001412291
-0.00017649704 -0.00015005807 -0.00014542248 -7.5065225e-05 -5.2195115e-05 7.209756e-05 8.940309e-05 7.6865734e-05
0.00013048526 0.00012813283 0.00015276762 9.447127e-05 7.8006145e-05 8.557847e-05 3.9420935e-05 5.857653e-05
6.1381754e-05 6.816912e-05 4.1331296e-05 2.213707e-05 0.00012003811 9.626128e-05 7.754938e-05 0.0001153847
5.149139e-05 9.644887e-05 8.884397e-05 4.9967133e-05 5.8140824e-05 7.578515e-05 5.0418173e-05 5.6250967e-05
0.00012207142 4.5899873e-05 8.67914e-05 0.000120128236 0.00020221845 0.00019578841 0.00018367726 0.00022377218
0.0001488759 0.00020375616 0.00022113688 0.00016172485 0.00023509518 0.00019831804 0.00021696517 0.00017668864
0.00017933999 0.00020671089 0.00014147442 9.0215435e-05 0.00015744648 0.00018187882 0.00012957987 0.00013763407
0.0001761385 0.0001470653 0.0001979153 0.00016882847 0.00015661816 0.00012305108 0.0001376679 0.00014474496
7.961885e-05 0.00014795705 5.3515258e-05 -3.623296e-05 5.3587937e-05 4.6959114e-05 1.5601514e-05 2.2661205e-05
7.6723176e-05 6.490994e-05 4.970477e-05 0.00013926688 0.00015266056 9.431479e-05 4.2020754e-05 7.904143e-05
9.171743e-05 7.436733e-05 2.4391446e-05 2.6483418e-05 2.0161458e-05 1.13607675e-05 4.6600693e-05 1.8027248e-06
-6.448661e-05 -1.6896331e-06 -6.0007802e-05 -7.597101e-05 4.1744675e-05 -3.5772133e-05 -2.375817e-05 2.0580557e-05
-7.4353748e-06 -2.0996828e-05 -4.4874603e-05 7.47786e-05 6.6788243e-06 1.7496071e-05 6.3888285e-05 5.3708634e-05
5.2923628e-05 -7.35821e-08 2.0853622e-06 9.429329e-05 8.700342e-05 9.9232086e-05 7.3716896e-05 5.4737582e-05
8.6141445e-05 0.00016935164 9.8479424e-05 7.709298e-05 0.00022408886 0.00020743303 0.00026757226 0.0002501289
0.00027812124 0.00031719045 0.00038550826 0.0004545386 0.0003703678 0.000422158 0.000491842 0.00047671405
0.0005281403 0.00056114135 0.0005884148 0.00061943044 0.000641204 0.00070928934 0.00074948196 0.0007401953
0.0007523676 0.00085777004 0.00084117975 0.00086853286 0.0009250431 0.00085808407 0.000824234 0.0008206211

Linear_Trend.bias f4 [24]
00000000: 51b8 83bc e972 523c 00c9 88bc f497 f63c
00000010: 2d2e 6dbc f069 883c 628c 00bc 84ff 3cbc
00000020: 2933 ac3c cd9a 3fbd 3d71 173d 105c 22bd
00000030: 9aab 32bd 0c30 95bc c8ed dfbb 137d 893c
00000040: 35df ccbb d005 0cbd 1f84 dcbc 51f0 19bd
00000050: 2540 3cbc f088 853a 5a65 173c 72b3 08bd
-0.0160791 0.0128447795 -0.016697407 0.030101754 -0.014476341 0.016652077 -0.00784597 -0.011535529
0.021020489 -0.04677849 0.036973227 -0.03963858 -0.043620683 -0.018211387 -0.0068337657 0.016783273
-0.0062521943 -0.03418523 -0.026918469 -0.0375827 -0.011489903 0.0010187905 0.009240473 -0.033374257

Linear_Decoder.weight f4 [24, 336]
00000000: 4c47 4c3d 7ac0 063d d042 683b de9a de3c
00000010: 3168 8e3c 6500 8cbc 2186 5cbd 93e3 143d
00000020: 092c c93c d91f 513d 66a4 0abd 947b 463d
00000030: c023 d93c 9a21 063d efb0 183d 97be 33bd
00000040: 8df9 133d f6c5 9e3c 7940 1a3d 079f 1cbc
00000050: 9965 e53b 521c 33bd 842c 2a3d 73dc 5b3d
00000060: 147f a83c 62eb fabc 0f38 1c3c b45c 1e3d
00000070: 09eb fcbc d104 ad3c dc97 553d 26de 7cbc
00000080: 50e9 49bd a8a6 423d 677d 5ebd a131 4d3c
00000090: c1bf 13bd 2ee6 55bb 15b5 08bd 0deb 36bb
000000a0: 2c25 7fbc 6eeb 2c3d 1c0c 83bc e086 543d
000000b0: 0a19 5fbd 8cfd 243c c050 883c 9090 1bbd
000000c0: 0b23 543d 0819 8a3c 1469 4f3d 3844 21bd
000000d0: 5599 c63b 0176 bbbc 1c7e cb3c c918 2b3d
000000e0: 9742 fa3c 25e9 72bc f41b 2cbd 3006 d3bb
000000f0: a8dc 99bb b5a9 0b3d e49b fc3c bc81 613c
00000100: d468 eabb 26ba 9abc 3546 273b b698 8c3c
00000110: d32e 173c 76cc cf3c 1a2b e13c a941 17bd
00000120: b313 033d 9b62 b73c cb5d f0bb d21d 0c3d
00000130: a07a 673c 26c7 c13c 3555 d7bc 8574 3c3d
00000140: e571 423d 4498 1dbd 231d 50bc 3daa 163d
00000150: 947e 333c 9357 413d 9180 183d cf49 19bd
00000160: 7c5c 8f3b c17c 2b3d ef34 3dbd 3c75 29bd
00000170: 6abe a8bc deff 233c 3ba1 f63c ff50 0abd
00000180: 0532 85bb af0d 8e3c 0acf 2c3c 6f61 5c3d
00000190: 2027 9ebc f820 20bd 74a1 9dbb ef5d d4bb
000001a0: eaa3 a4bc c0e1 503c d20b fa3b c139 48bd
000001b0: 5d91 25bd 3ccf fe3c 3b87 343d 8cf9 25bd
000001c0: 402d fe3b bd9a 2ebd 661e 203d c945 4a3d
000001d0: 50cd 9ebc 9a09 58bd 4451 123c 43f7 5c3d
000001e0: 3df8 d93c 9abe 533d 045d 833b ae6a c4bc
000001f0: 0895 13bd 2184 87bc 7e35 143d 24d1 d4bc
00000200: beb2 3b3d 3ea8 003d 9823 28bd b975 923c
00000210: a11b 343d 69b1 51bd 2e39 583d 69c9 483d
00000220: f31d 07bd 50ae e3bc 8c49 3f3d 758a 423d
00000230: a03c 8fbc 0b2b 56bd cf14 e4bc 145f 81bc
00000240: 759c 75bc 46c8 fb3b 1d12 37bc bcc5 863c
00000250: d9c8 e1bc fcfd 283d d223 be3c 0dc5 2cbd
00000260: b627 edba e2d9 1f3c 3ddf b7bb eea4 333d
00000270: 75c0 32bd d9e2 08bc fc6b 4d3d 3edc edbc
00000280: 7d04 b63c 6ffc 8c3c 2aea baba 2e55 c23c
00000290: fb53 0fbd 5e84 6e3c df5d 00bc 5621 d0bc
000002a0: 3cd0 8b3c 5b94 38bb ef67 3d3c 3f48 8f3b
000002b0: e5dd 5ebd c830 9abc d3d3 a53c 8aab 6dbc
000002c0: 1200 23bd ef1c e93c b547 27bd 27d7 9c3c
000002d0: fc43 c93c 6b44 3bbd 294e 41bd f581 ce3b
000002e0: d928 f4bc 3952 183d 73e7 9c3c e1ea 533d
000002f0: 11a8 263d 851f a9bc c072 2c3d b891 563d
00000300: dd9a df3c bf06 003d beb4 3f3c e95f 81bb
00000310: 13b4 4ebd 0fbf 913c 2dae a2bc c432 a0bc
00000320: 9a10 b2bc 92a9 5cbd 1654 47bd cf16 ddbc
00000330: 88d0 afbc 8356 43bd 1cd5 ff3c 1a1d 22bd
00000340: f1e3 51bd bf4b 6c3b ac5f 4c3d 49fd 8f3c
00000350: e83f a73c 6454 21bd 8476 4abd 4d54 353d
00000360: f362 363d 8630 9d3b a9e1 f5bb 657e 1d3d
00000370: b4bc 3e3d f87b e03c a239 30bd dc83 0dbd
00000380: 0c7a 343c a583 b5bc 4f55 dabc 16d4 d83a
00000390: 9691 483d f880 53bd eb44 5ebc 48ec dcbc
000003a0: 619c 28bd b946 e93c 7953 10bd 7456 453d
000003b0: 0db3 5bbd 16b3 fdbc 6af3 5ebd 300d 4d3d
000003c0: 2393 323d 15cb 57bd 2ca6 3e3d 8435 1b3d
000003d0: aac4 0f3d 2cdc a9bc 2ad8 3b3d 9fe1 313d
000003e0: 606d d8bc 5d09 80bb 7310 de3c 3c9b 253d
000003f0: 80ad 3e3d 3991 213d c9d6 4ebd 1efd 5f3c
0.04987268 0.032898404 0.0035440214 0.027173456 0.017383667 -0.017090032 -0.053838853 0.036349844
0.02455713 0.051055763 -0.03384819 0.048457697 0.026506305 0.03274689 0.037278112 -0.043882933
0.036126662 0.019381505 0.037659142 -0.009559399 0.007000637 -0.04372818 0.04154636 0.053677034
0.020568408 -0.030629817 0.00953485 0.038662627 -0.030873792 0.02112046 0.052146778 -0.015433824
-0.04929477 0.047522217 -0.05431881 0.0125240395 -0.036071543 -0.0032638418 -0.03337582 -0.0027911097
-0.015572827 0.04221671 -0.015996985 0.05188644 -0.05446724 0.010070216 0.016640067 -0.037979662
0.051791232 0.016857639 0.05063732 -0.0393717 0.006060759 -0.022883417 0.024840407 0.041771684
0.03054933 -0.014826094 -0.042018846 -0.0064399466 -0.0046954937 0.034097392 0.030836053 0.013763841
-0.00715361 -0.01888759 0.0025524024 0.017162662 0.009227472 0.02536605 0.027486373 -0.036927853
0.03200121 0.022385886 -0.0073353997 0.034208126 0.014128357 0.023654532 -0.026285747 0.04600956
0.0474719 -0.03847529 -0.012702259 0.036783446 0.010955472 0.047202658 0.037231985 -0.037423905
0.0043750387 0.04186702 -0.04619306 -0.04137157 -0.020598609 0.010009734 0.030106178 -0.03376865
-0.0040648007 0.01734051 0.010547409 0.053803857 -0.019305766 -0.03909394 -0.0048105065 -0.0064809243
-0.020097692 0.0127491355 0.0076308036 -0.048883203 -0.040421832 0.031104676 0.04407428 -0.04052119
0.007756859 -0.04262804 0.03909149 0.04938296 -0.01938501 -0.05274353 0.008930508 0.053946745
0.026607627 0.051695444 0.004008891 -0.02397665 -0.0360308 -0.016542496 0.036183827 -0.025978632
0.04582476 0.03141045 -0.04104957 0.0178784 0.04397166 -0.051194582 0.052788906 0.049020205
-0.032987546 -0.02779308 0.046701 0.047495324 -0.017484963 -0.052287143 -0.027841954 -0.015792407
-0.014990916 0.0076837866 -0.011173752 0.016451709 -0.027561592 0.041257843 0.02321044 -0.04218011
-0.00180935 0.009756537 -0.005611329 0.04385846 -0.043640573 -0.008354866 0.05015181 -0.029035684
0.022218937 0.017210213 -0.001426046 0.023722257 -0.0349922 0.014557926 -0.007834881 -0.02540652
0.017067067 -0.0028164599 0.011560424 0.004372626 -0.054410834 -0.018822089 0.020242607 -0.01450623
-0.03979499 0.02845618 -0.04083987 0.019145561 0.02456855 -0.045719545 -0.04719368 0.006302113
-0.029804634 0.03718779 0.019153332 0.05173767 0.040687624 -0.020644912 0.04210162 0.052385062
0.027295524 0.031256434 0.011700807 -0.003948201 -0.0504647 0.0177913 -0.019858444 -0.019555457
-0.021736432 -0.053872652 -0.048664175 -0.026988415 -0.02146174 -0.047689926 0.031229548 -0.039578535
-0.051242772 0.003605589 0.049895927 0.01757683 0.020416215 -0.03938712 -0.04942943 0.04426985
0.04452796 0.004797044 -0.0075037074 0.038450617 0.04656668 0.027402863 -0.043023713 -0.03454958
0.011015426 -0.0221575 -0.026652006 0.0016542699 0.048966967 -0.051636666 -0.013566236 -0.026968136
-0.04116476 0.028476106 -0.035235856 0.04817815 -0.053637553 -0.030969184 -0.054431356 0.050061405
0.04359735 -0.05268391 0.046545193 0.037892833 0.035099663 -0.020734869 0.045860447 0.04342806
-0.026419342 -0.003907366 0.027107453 0.040431246 0.04655218 0.039445136 -0.050497804 0.013671188

Linear_Decoder.bias f4 [24]
00000000: a8d9 dbbc fcdd d93b b287 4d3d fdd1 2c3d
00000010: 1140 b9bc fa64 27bd 7878 a13c 8d4c b33c
00000020: bb6c c73a 5598 933c 0d7d 053d 5904 a73c
00000030: bd91 c1bc e0d5 dc3c ab84 eebc e22d 063d
00000040: 9bba 08bd d1e7 ccbc b019 ffbc 0907 2fbc
00000050: b274 523d c3bc 013b 1c09 35bd 15b6 0dbd
-0.026837185 0.006648777 0.050178237 0.042192448 -0.022613557 -0.040867783 0.019710764 0.021887088
0.0015214899 0.018016974 0.03258996 0.020387815 -0.023629064 0.026957452 -0.029115995 0.0327586
-0.033381086 -0.025012882 -0.031140178 -0.01068283 0.05138082 0.0019796349 -0.04419814 -0.034597475
