ESNLinear/checkpoints/ETTh1_336_24_ESNLinear_ETTh1_ftS_sl336_ll48_pl24_dm512_nh8_el2_dl1_df2048_fc1_ebtimeF_dtTrue_Exp_0/checkpoint.pth (torch, 99240 bytes, 4 tensors)

Linear_Seasonal.weight f4 [24, 336]
00000000: 8044 dcbc 9411 bebc 75d5 cfbc f7b8 8ebc
00000010: 0b59 80bc a9d1 10bc 2ac9 16bc 06a3 02bb
00000020: 83f3 89bb 91be 82ba 7349 8dbb c673 e0ba
00000030: f6fe a8bb fc14 97ba 6766 1cbb b25e e839
00000040: 69d6 47bb ed86 373a 74ed 3cbb 6c8b 123b
00000050: 5ee5 22bb 1e10 6c3b 2bed c9b9 aa1b b73b
00000060: 28f4 32bb 6c9e 803b 66ee e8ba da49 9f3b
00000070: ee50 38bb 4592 833b 2b50 75bb 2702 8d3b
00000080: ec0c 04bb a013 ab3b 4641 efba 9415 aa3b
00000090: 703f beb9 1926 793b cba4 8bb8 d62d 553b
000000a0: 3a9e d13a ea86 e13b f6a8 5a3a ece8 be3b
000000b0: 08e9 ccb9 6cbe 923b 54a3 5eba fd4e b53b
000000c0: d004 48ba 2a70 b33b 9dfc e1b9 309b d63b
000000d0: a40b c13a c43a 123c c4e9 353b c0ab 103c
000000e0: 31da a13b 6ebd 063c 2a5d 8d3b 4684 bf3b
000000f0: a036 023b 2854 633b edcd c839 3656 5b3b
00000100: 2c80 75ba 42da 003b 0e0a 393b 4470 4a3b
00000110: 0b6f 893b b906 e03b 5f30 b03b 9e2e 113c
00000120: 782f 873b 923a 003c d63b 8f3b 9ec7 cb3b
00000130: 4207 723b 8982 c23b 390e 4c3b f444 833b
00000140: cae5 993b 5f5f 273b d4eb 7e3b cf3a 033b
00000150: 5b0f 593b e36f 463a 113d 443b d0cf c3b6
00000160: 8977 c63a fd64 9dba 50a8 3e3a ae04 2bbb
00000170: ce0e 483a afed 4ebb b021 1c3b 8eee caba
00000180: 9ee4 8a3a 8627 713a 7e55 103b e0c5 f138
00000190: 2ab3 133b 150b 11ba a173 293b 7a7a 923a
000001a0: 856e a73b 9b50 1d3a 6151 ee3b 95b4 a33a
000001b0: 2874 f83b de6c de3a bcad f83b b999 ed3a
000001c0: fb88 af3b 7167 d5ba ccdc 9c3a f549 8abb
000001d0: 6022 6db9 c88e 4bbb 5cf4 44bb d8fc 06bb
000001e0: e318 01bb 1d19 14bb 40ca a6b8 30d9 11ba
000001f0: 7a5c e23a 0220 6e3b b8f0 7f3b c684 9f3b
00000200: d2fd d23b 2da8 903b 83ab f03b c931 063b
00000210: 14e8 a73b cac5 0139 002d 353b 7b12 a73a
00000220: 82f4 643b 2e18 303b fa8d 313a 42f2 97b9
00000230: cc34 023b b270 e539 f613 9ab9 57c0 d7b9
00000240: c8f9 3c3a d608 73b9 7885 fb3a d72b 093b
00000250: e0ad 153b e42f ff3a 5369 553b 6213 143b
00000260: 1982 883b 92e8 563b 5a16 c23b eb5e 583b
00000270: f6b9 8b3b b74c 0a3b adbf 6b3b 28a9 7fb7
00000280: e4ef 513b 94c0 2c3a 04c9 6b3b 4ee7 e53a
00000290: 756a 5c3b e755 2f3b 57fa 183b 74f4 2c3b
000002a0: 8ac6 9d3b 6686 a93b 4b5e e13b 3f32 ea3b
000002b0: 447a ad3b f42d 983b ac1e cb3a 3592 1d3b
000002c0: b408 1a3b c27f 883a 934f 5c3b ef78 113a
000002d0: 0f19 7e3b f80f 0a38 5c67 8c3b ea90 4d3a
000002e0: b7cc cb3b 614d 7f3b d1ad de3b 9652 4f3b
000002f0: d220 ad3b c06f 523b c0f2 283b 76c6 a33b
00000300: 3308 093b 6f2f c53b 2e06 e23a 1b0d d73b
00000310: 8c30 f63a 5c95 7c3b 40a9 a33a 0906 b53a
00000320: fbce cfba 658a a039 9f3f bdba 78c8 33bb
00000330: a0a8 23b9 ab76 f3ba 9694 aeba 68c1 55ba
00000340: e8f2 143a 5afb 153b 5ada 5d3b ac84 4e3b
00000350: b904 f43a a8ae 593a fa60 9cb9 def3 13ba
00000360: 3d0d 0cbb 2d6f 9e3a 3af6 f939 def0 063b
00000370: 0e5b 62ba 67f7 263b 5080 393a 5251 053b
00000380: ae8c 433b cdc3 853b 9758 053b c88c 7a3a
00000390: b683 443a 9a2d 4dba 7645 69ba a000 57bb
000003a0: 42ee 20ba a9c4 c43a 5c93 1bba b550 123b
000003b0: 6aed 0e3b 7496 483b 0b26 5b3b e744 e03b
000003c0: b616 5e3b cbda c83b 4c0b 833b 8e99 a43b
000003d0: b01f 1339 a3a4 fa3a 603f b1ba c429 e9b8
000003e0: d086 0aba e17e 00ba 727c b83a f470 8338
000003f0: c2a4 afba 7061 39bb 4a95 8fb9 15c3 6cbb
-0.026888132 -0.023201741 -0.025370339 -0.017422182 -0.015667459 -0.008839049 -0.009203235 -0.0019933595
-0.004209937 -0.0009975006 -0.0043117343 -0.0017124347 -0.005157347 -0.001152664 -0.0023864747 0.00044321042
-0.0030492789 0.00070010015 -0.0028828057 0.0022360934 -0.0024855952 0.0036020349 -0.0003851441 0.0055880146
-0.0027306173 0.0039251354 -0.0017771244 0.0048610987 -0.002812441 0.0040152394 -0.0037431817 0.004303235
-0.0020149304 0.0052208453 -0.0018253706 0.0051905606 -0.0003628689 0.0038017093 -6.6587316e-05 0.003252854
0.001599259 0.006882538 0.0008341217 0.0058261063 -0.00039083534 0.0044782665 -0.0008492966 0.005533098
-0.00076301116 0.0054760175 -0.00043103556 0.0065492615 0.0014728201 0.008925144 0.0027757743 0.008830011
0.0049393405 0.0082238745 0.0043140845 0.0058446256 0.0019868985 0.0034687612 0.000383004 0.0033468134
-0.00093651074 0.0019661342 0.0028234753 0.003088967 0.0041941456 0.006836739 0.00537686 0.008861212
0.0041255318 0.007826464 0.0043711467 0.0062188646 0.0036930596 0.005935971 0.0031136407 0.0040060226
0.0046965824 0.0025539023 0.0038897889 0.0020024066 0.0033120725 0.0007569773 0.0029943625 -5.8356454e-06
0.0015141825 -0.0012008246 0.00072730053 -0.0026095319 0.00076316006 -0.0031574776 0.002382379 -0.0015482472
0.0010596698 0.000919931 0.0022023614 0.000115286326 0.002253721 -0.00055329624 0.0025856274 0.0011175417
0.0051096105 0.0006001086 0.0072728847 0.0012489731 0.0075822063 0.0016969701 0.00758907 0.0018127478
0.0053569055 -0.0016281438 0.0011967658 -0.004220242 -0.00022614887 -0.0031060446 -0.0030052876 -0.0020597484
-0.0019698672 -0.0022597976 -7.953169e-05 -0.00055636745 0.0017269992 0.0036334996 0.0039053392 0.0048681227
0.006438949 0.0044145794 0.0073446645 0.0020476452 0.0051241014 0.00012376081 0.002764523 0.0012746596
0.0034935777 0.002686988 0.00067731703 -0.0002898146 0.0019867895 0.00043762248 -0.0002938804 -0.000411513
0.0007208851 -0.00023177578 0.0019189557 0.0020930672 0.0022839233 0.0019469229 0.0032563999 0.002259456
0.0041658995 0.0032792431 0.0059230747 0.003301556 0.0042641116 0.0021102855 0.0035972402 -1.5238569e-05
0.0032033855 0.00065899757 0.003597797 0.0017540248 0.003363279 0.0026754083 0.0023342574 0.0026390823
0.0048149275 0.0051734922 0.0068776957 0.007147103 0.005294116 0.00464415 0.0015496812 0.0024043445
0.0023503723 0.0010414051 0.0033616766 0.00055493315 0.003877226 3.2916636e-05 0.0042847823 0.0007841723
0.0062194723 0.0038956034 0.006795623 0.0031634918 0.0052834535 0.0032110065 0.0025779456 0.0049980236
0.0020909428 0.0060176174 0.0017244273 0.0065628416 0.0018782779 0.0038541174 0.0012486354 0.0013811003
-0.0015854532 0.0003062069 -0.0014438516 -0.002743272 -0.00015607709 -0.0018574795 -0.0013319429 -0.0008154125
0.0005681948 0.0022885413 0.0033852072 0.0031512184 0.001861713 0.0008303919 -0.00029826892 -0.0005643944
-0.0021370195 0.0012087576 0.00047676434 0.0020590345 -0.0008634784 0.0025477053 0.000707631 0.002034266
0.002983849 0.004082179 0.0020346993 0.0009557721 0.0007496433 -0.00078269246 -0.0008898595 -0.003280677
-0.0006139019 0.0015012223 -0.0005934739 0.0022325937 0.002180899 0.0030607255 0.0033439423 0.0068441513
0.0033888048 0.006129598 0.0039991494 0.005023188 0.00014030817 0.0019122552 -0.0013522916 -0.00011118085
-0.0005284371 -0.0004901719 0.0014075174 6.267606e-05 -0.0013400542 -0.0028286837 -0.00027386314 -0.003612702

Linear_Trend.weight f4 [24, 336]
00000000: dd9d acbc b47d 22bc 4ad4 8b3a 2ee5 44ba
00000010: 07cf a33b 3862 543b 0634 c43b bf91 933b
00000020: 027c b93b 8a31 943b 7231 9d3b 2ac9 823b
00000030: 86ac 733b def5 473b df3f 243b 6310 003b
00000040: be35 ab3a f008 723a 9049 a839 ffc0 c638
00000050: eceb c4b9 9d8b eeb9 26b8 58ba 540d 59ba
00000060: 0ed9 8fba 97b0 86ba 3556 9eba 6e0f 8eba
00000070: c25f 9bba c9af 89ba d066 8fba 9294 76ba
00000080: 5687 74ba 392d 54ba eb41 4aba d2d7 2dba
00000090: 0ff0 18ba f003 fbb9 4ed7 bbb9 8f6f 90b9
000000a0: dc25 05b9 5819 59b8 960b ff38 365d 4239
000000b0: ddca c339 9995 d039 0c7b 173a a1a9 123a
000000c0: cf9f 403a e3ca 363a 9e2d 633a 1098 4c3a
000000d0: 68d2 713a f133 4d3a 5038 6e3a 154a 3e3a
000000e0: 36e5 5d3a 960d 293a b18c 4d3a c7d6 153a
000000f0: 732c 3c3a 0fc5 f839 12f4 233a 5abf c239
00000100: e3e4 103a fcca a239 9dc5 053a fd6b 8b39
00000110: e9d5 fe39 ef68 7d39 e27f fa39 0ec0 6439
00000120: 4207 ea39 c9de 2b39 8b36 c039 124b 8c38
00000130: ad6d 9339 a00c e4b6 bd6e 6c39 d03f 84b8
00000140: 391e 4839 48c3 b9b8 3d44 3739 bf01 f5b8
00000150: cc64 0939 4ed1 3bb9 70c6 9838 2320 82b9
00000160: 90cf e3b5 5f72 b1b9 1038 e7b8 122c f0b9
00000170: 74e0 67b9 d454 13ba a9a6 9eb9 e6d6 24ba
00000180: 5891 b2b9 746c 29ba eb4f aeb9 58ae 21ba
00000190: d8ff 96b9 f9b6 11ba 1ea5 68b9 c46d ffb9
000001a0: 7254 21b9 193b dcb9 24a1 b3b8 04ab b9b9
000001b0: d6e3 0eb8 9c54 a3b9 f0e6 8135 6828 94b9
000001c0: 563f b937 b33a 88b9 4b80 4038 4da8 69b9
000001d0: b8ea ba38 59ac 2db9 4df1 1f39 c449 c8b8
000001e0: a6ea 6a39 eaa4 5ab7 411a 9f39 1e82 7438
000001f0: 1654 c039 c788 0439 592a e039 4bb7 4239
00000200: 1632 003a 3952 8239 a12a 0f3a 1e26 9539
00000210: f00f 133a 2484 9539 0b29 103a 34f1 8439
00000220: 7472 023a e0b7 4639 f74b e139 d6a7 0239
00000230: 2efa c539 c5a9 be38 4138 bc39 0ef1 a938
00000240: 05c6 ba39 85b6 b138 c4f7 be39 0e0d d338
00000250: 2157 cf39 9a9c 2639 6c90 fb39 bf11 8b39
00000260: 5c1d 1c3a c887 c439 e755 343a 26c7 e439
00000270: 03af 3f3a 1289 f439 66e5 423a c53b ee39
00000280: 9ffb 3b3a 015f d539 afe3 293a e8a9 aa39
00000290: 27db 133a e673 6539 466a ec39 f070 d638
000002a0: 469e ad39 147b 0db8 b956 4239 3d43 44b9
000002b0: 5fd7 2938 7679 aab9 7357 bdb8 0f9f f0b9
000002c0: be99 61b9 c2f6 16ba 6e84 a5b9 b119 2eba
000002d0: bcfe c4b9 2df1 3aba 8ac4 dab9 0794 45ba
000002e0: 6cb6 edb9 3572 4eba aef8 fdb9 b4ca 51ba
000002f0: 61fd f8b9 840a 4bba d7d5 e5b9 f6b1 3eba
00000300: 5943 c7b9 04ec 2aba 056f 99b9 eca0 10ba
00000310: 1358 43b9 c504 e8b9 ce8c bbb8 8385 bab9
00000320: c2a6 6cb7 9be8 93b9 eeba 6638 fea8 61b9
00000330: db6f fd38 56a5 12b9 305a 5939 3b60 3ab8
00000340: 2b73 a039 5243 7338 9f2a d939 1df7 3b39
00000350: 77c8 113a 7bb2 a639 dceb 373a 6057 f339
00000360: 93a0 5f3a 7930 1b3a e649 803a 9bcb 363a
00000370: 7355 8e3a ed0a 4d3a 7487 973a 3cf3 543a
00000380: bcaf 993a c55e 513a 8d67 953a 4cd8 403a
00000390: d55d 8c3a 3cd6 263a e294 7a3a 9847 fc39
000003a0: 446f 4e3a c214 9c39 b6f2 1e3a 4c02 d438
000003b0: f646 d939 2237 d6b8 a210 6839 3064 9db9
000003c0: a8c8 2a38 ee6a f5b9 8024 bfb8 e77d 1aba
000003d0: e68f 41b9 ac6a 2fba ee12 72b9 0018 36ba
000003e0: ec01 72b9 c386 34ba b48b 4eb9 0fa3 28ba
000003f0: 9b78 12b9 ca42 1cba 27b5 aeb8 8ccc 0dba
-0.021071369 -0.009917665 0.0010668125 -0.0007510957 0.004999045 0.0032407176 0.005987647 0.0045034583
0.005660535 0.004522507 0.004797154 0.003991266 0.003718169 0.0030511538 0.0025062484 0.0019541017
0.0013062281 0.0009232899 0.00032098265 9.477324e-05 -0.0003755981 -0.00045498917 -0.00082671863 -0.0008279879
-0.0010974722 -0.0010276017 -0.0012080135 -0.0010838339 -0.00118541 -0.0010504659 -0.0010940675 -0.0009406294
-0.0009328028 -0.0008093897 -0.0007715511 -0.0006631586 -0.00058341114 -0.00047877384 -0.00035827834 -0.00027548938
-0.00012697972 -5.1760435e-05 0.000121615056 0.00018536006 0.00037344443 0.0003978431 0.0005778528 0.00055947347
0.0007348032 0.00069729815 0.000866616 0.00078046415 0.00092247734 0.0007827869 0.00090873707 0.0007258964
0.0008464636 0.0006448863 0.0007841094 0.0005715903 0.00071782543 0.00047449066 0.0006254326 0.00037145132
0.0005527271 0.00031050283 0.0005102994 0.00026592604 0.0004860603 0.00024167051 0.00047778996 0.0002181532
0.00044637365 0.00016390825 0.0003666173 6.689703e-05 0.0002811974 -6.7963992e-06 0.00022547967 -6.3061365e-05
0.00019084745 -8.8578614e-05 0.00017477661 -0.000116828356 0.00013102888 -0.00017911682 7.284887e-05 -0.00024819476
-1.6973227e-06 -0.00033845284 -0.00011025381 -0.00045809202 -0.00022113492 -0.00056202454 -0.0003026028 -0.0006288126
-0.00034059095 -0.0006462999 -0.0003324741 -0.0006167642 -0.00028800848 -0.0005558576 -0.00022186755 -0.00048719172
-0.00015385615 -0.000420057 -8.5654e-05 -0.00035413366 -3.4067627e-05 -0.00031152822 9.678461e-07 -0.00028258865
2.2083212e-05 -0.00025983676 4.589585e-05 -0.00022283308 8.912891e-05 -0.0001656277 0.00015253313 -9.550483e-05
0.00022403392 -1.303221e-05 0.00030346404 5.8295314e-05 0.00036683743 0.00012639455 0.0004275616 0.00018569564
0.0004890276 0.00024856793 0.00054613693 0.00028447894 0.000560998 0.00028517947 0.000549928 0.00025356712
0.0004976161 0.0001895125 0.00042971942 0.0001246029 0.00037761166 9.091528e-05 0.00035900067 8.103448e-05
0.0003562422 8.4740146e-05 0.00036424224 0.00010063696 0.00039547033 0.00015889332 0.00047982053 0.00026525368
0.00059553026 0.00037485198 0.00068792555 0.00043635926 0.00073121506 0.00046641432 0.0007434696 0.0004543943
0.00071709784 0.0004069731 0.0006480766 0.00032551517 0.0005640261 0.00021882317 0.00045092608 0.000102253514
0.00033115054 -3.3731645e-05 0.00018533588 -0.00018717065 4.049332e-05 -0.00032515422 -9.028511e-05 -0.00045894875
-0.00021514946 -0.00057588157 -0.0003156992 -0.00066414016 -0.00037573825 -0.0007131275 -0.00041726633 -0.00075370114
-0.00045340077 -0.00078752945 -0.000484412 -0.00080029224 -0.00047491028 -0.00077454024 -0.00043837607 -0.0007274443
-0.00038006416 -0.00065201544 -0.0002926515 -0.0005517143 -0.0001862946 -0.00044254042 -8.943082e-05 -0.0003557616
-1.41055225e-05 -0.0002821133 5.5010365e-05 -0.00021520627 0.00012084815 -0.00013985237 0.0002072833 -4.4435477e-05
0.00030603385 5.799841e-05 0.0004142122 0.00017925767 0.00055611826 0.00031794966 0.0007016042 0.0004641367
0.00085307023 0.0005920004 0.0009787648 0.00069730886 0.0010859206 0.00078217575 0.0011560754 0.0008123403
0.0011725347 0.0007986839 0.0011398658 0.00073564495 0.0010709116 0.0006364321 0.00095589284 0.00048118527
0.0007874856 0.00029770104 0.00060633884 0.000101093756 0.00041442335 -0.000102145845 0.0002213144 -0.0003002002
4.0718034e-05 -0.0004680971 -9.1143884e-05 -0.00058933947 -0.0001845952 -0.00066916156 -0.0002308597 -0.00069463253
-0.00023079634 -0.0006886536 -0.00019697734 -0.0006432989 -0.00013968574 -0.000596088 -8.330709e-05 -0.0005409203

Linear_Decoder.weight f4 [24, 336]
00000000: 17a7 20bb 590e 563d 7ba3 14bd 89e6 29bc
00000010: 8361 483d 5b45 223d 6aeb 3cbc 5fc4 c33c
00000020: 8376 763c 0328 3cbd 55dd 4dbd 013f bdbc
00000030: a34f c43b 61fc 193c 7245 84bc 74d3 0dbd
00000040: 6630 3f3d 9b1b 0bbc 8514 cabc 1f01 d5bc
00000050: fcf0 02bd fe53 96bc da61 7abc dca7 9ebc
00000060: 5686 ca3c 2026 31bc d66f 07bd efb0 d5bb
00000070: f010 473d 234f 3e3c 3ee7 993c 09ac e3ba
00000080: 8b81 61bb 954c 093d c485 44bd d6fe e7bc
00000090: ac6f 6b3b 2b31 d53c fcd5 92bc 82b0 43bd
000000a0: d496 833c 9693 063c a60d 24bd 50bf 43bd
000000b0: ba59 383d 53a7 fb3b fc43 45bd de60 c6bc
000000c0: a142 063b d279 5a3d 52ed 453a aaa3 ebbb
000000d0: 4147 be3b ec87 c9bc 0941 f23b 6ba6 58bd
000000e0: c153 33bd c98a 053d 4abf 2ebd 182e d7bc
000000f0: b9ee 6d3b 266b 203d 3568 1c3d eaaf 5bbd
00000100: a150 6cbc 0944 e1bc 2258 3f3b 13f1 f93c
00000110: a57c 2a3c 42bb c4bc 8c0f f43b e178 5ebc
00000120: ac1a e0bc b06e 5bbd 415b d63b 0ef3 ef3c
00000130: 81f4 45bd 33bb db3c dfff c53c 82ca 04bd
00000140: f5f0 0cbd 94fa 113d ab6e 503c bac9 19bc
00000150: 0eda 21bd 1c9c b6bb 9400 17bd b1fd 70bc
00000160: 1652 7abb 8d61 043d d6d7 2fbd 3ced b6bb
00000170: 415f ddbc 4c7c 0f3d 03d9 853c 90e6 fcbc
00000180: fecf c73c d1c2 d93c ee01 3f3d 63b2 b0bb
00000190: 4fd0 a8ba cb60 2a3c 6555 52bd a098 22bd
000001a0: 4d67 c83c 6120 373c 4c62 773c b987 2a3d
000001b0: bc2e 48bd 360f d43b 9f8d 0cbc 2cc4 513d
000001c0: 767e 8abb f7cb 213d 2885 4a3d 3a9f 8dbc
000001d0: dea1 54bd f2ea 05bd d2e1 39bd 205f 273d
000001e0: 1ff0 35bd 075a cdbc 724f 4d3c afa6 39bd
000001f0: 54d6 56ba 3861 3f3d e6a4 b43c ab5c 413d
00000200: 676e cd3b dd38 0e3d 76b1 d3bc bc2c e73c
00000210: a66f e13c 8a4f 0cbb 74d9 c03c f8a9 73bc
00000220: 540a 82bc 5c9a 03bc 961f ae3a dd56 a6bc
00000230: 05a0 4eba fab2 4bbd f17b 273c 1fd4 143d
00000240: 6931 2d3d c138 4cbc e363 b83c 586f 7d3c
00000250: 7f66 4a3d 3d22 e53c 19f9 25bb 9f06 393d
00000260: ef6a 53bd 0b0b 1abd 8960 3f39 ae4a b8bc
00000270: cf18 35bd 8924 5bbd d469 e9bc 2f3e 923c
00000280: 40eb 42bd 04fd 0a3d 66e4 923c 5179 443d
00000290: e49c 263d cdb2 14ba 77d0 cdbc 6bb6 efbc
000002a0: 1a83 393d b3f5 983c 52cb fa3c b5dc 3d3d
000002b0: c07d 15bd 5af0 313d 4129 bcbb b2a9 0ebd
000002c0: 60f5 4ebd ce1a 4d3d e14e ff39 452a 32bd
000002d0: 4acd 1cbc a321 363c 90af cbbc 6950 3a3d
000002e0: 0143 29bd e6a4 00bd 9c57 f53c e392 f8bc
000002f0: 780a 9a3c d8ab 203d 3a0c 46bd cd13 1dbd
00000300: 1d55 25bd dfd1 123d 4dff b7bc 137a 88bc
00000310: 1e98 17bd 9d46 3ebd 9285 53bd 827d 243d
00000320: 6e5e c53c 17dc babb aedf cfbc 7dae 00bd
00000330: 5fac dcbc 1fc0 f13a 4f52 3dbd b42a 5a3d
00000340: 67de 2b3c 2297 1c3d fc4c 113b 5d76 353d
00000350: 37ef 03bd 8339 d63c 3db2 1a3c 644d 143d
00000360: 298b dcbc 1a23 bcbc 8347 a03b 9d6a 533d
00000370: 2733 713c dee9 5a3d 91f8 323d 18bc a93c
00000380: 3d54 d3bc d307 843c 8931 8b3c e2c2 4dbd
00000390: 5c9a a23c cd28 7fbb 0596 b83c b9a8 5ebd
000003a0: 344e a63b 4607 6e3b 202c cb3c c51c 89bc
000003b0: 2008 643b 574e 213d b04f dfbc 270a 31bd
000003c0: 7fc1 383d 362c 913c 2e46 cabc ad0c 26bd
000003d0: 6582 4c3d e5c4 39bd 9f04 4bbd 1187 a4bc
000003e0: 4d74 eebc 6662 7a3c de8e 38bd 47a0 db39
000003f0: 1502 573b 2b59 6c3c 0afe 1fbd 7d0c a2bc
-0.0024513656 0.052259777 -0.03628872 -0.010369905 0.04892112 0.039616924 -0.011530736 0.023897348
0.015042904 -0.045936596 -0.050259907 -0.023101332 0.0059909387 0.009398551 -0.016146395 -0.034625486
0.046677016 -0.008490468 -0.024667988 -0.026001511 -0.0319681 -0.018350597 -0.015282119 -0.019367151
0.02472226 -0.010812312 -0.03306564 -0.0065213363 0.048600137 0.011615547 0.018787023 -0.0017369996
-0.003440949 0.0335203 -0.04797913 -0.028319757 0.0035924716 0.026024422 -0.017924301 -0.047775753
0.016063131 0.008213898 -0.04005208 -0.04778987 0.045007445 0.0076798587 -0.048160538 -0.024216112
0.0020486491 0.053338833 0.0007550317 -0.007191141 0.005806834 -0.024600945 0.0073930067 -0.052893084
-0.043781046 0.03260306 -0.042662896 -0.026267096 0.003630562 0.039164685 0.038185317 -0.05363456
-0.01442352 -0.027498262 0.0029196818 0.030510461 0.010405694 -0.024015073 0.0074481424 -0.013578624
-0.027356468 -0.053572357 0.00654164 0.029290702 -0.04832888 0.026822662 0.02416986 -0.03241969
-0.034409482 0.03563936 0.012721698 -0.009386474 -0.039514594 -0.005572809 -0.036865786 -0.014708922
-0.00381959 0.032319594 -0.042930447 -0.0055824798 -0.02702296 0.035030648 0.01633883 -0.03087166
0.02439117 0.026582154 0.0466327 -0.005392359 -0.0012879464 0.010399054 -0.05135097 -0.039696336
0.02446332 0.011177153 0.015099119 0.04163334 -0.048872694 0.00647154 -0.008578687 0.051212475
-0.004226501 0.039501157 0.049443394 -0.01728784 -0.05191218 -0.032694764 -0.045381375 0.040862203
-0.04441845 -0.025067342 0.012531148 -0.045324977 -0.00081953895 0.046723574 0.022051286 0.047207516
0.0062692645 0.034722198 -0.025841456 0.028219573 0.027519058 -0.0021409714 0.02354119 -0.014872067
-0.015874065 -0.008032408 0.001328456 -0.020305092 -0.0007882121 -0.049731232 0.010222421 0.036335107
0.04228345 -0.012464703 0.022508567 0.015468441 0.049414154 0.027970428 -0.0025325476 0.04517233
-0.05161565 -0.037608188 0.00018251142 -0.022496548 -0.044213112 -0.05350164 -0.028492846 0.017851917
-0.047587633 0.0339327 0.017931174 0.04796726 0.040676966 -0.00056723953 -0.025123818 -0.029261788
0.045291044 0.018671846 0.030614529 0.04635306 -0.036496878 0.043442108 -0.0057422225 -0.034829803
-0.050526977 0.05007439 0.0004869616 -0.043497343 -0.009570429 0.011116418 -0.024863988 0.04548684
-0.041323666 -0.03140726 0.029949002 -0.030343479 0.01880382 0.039226383 -0.048351504 -0.03834896
-0.040364373 0.03584468 -0.022460604 -0.016659772 -0.037010305 -0.04645406 -0.051641054 0.040158756
0.02409288 -0.0057025063 -0.025375213 -0.031416405 -0.026937662 0.0018444097 -0.046221074 0.05326338
0.010490037 0.03823007 0.002217113 0.044302333 -0.032210555 0.02615047 0.009441909 0.036206618
-0.026921825 -0.022965956 0.0048913374 0.051615346 0.014721668 0.05344569 0.043694083 0.020719573
-0.025797004 0.016117012 0.016991394 -0.050234683 0.019848995 -0.0038934231 0.022532472 -0.054360125
0.0050752405 0.0036320253 0.024801314 -0.016737351 0.0034794882 0.03938135 -0.027259678 -0.043222573
0.045106407 0.017721277 -0.024691667 -0.040539432 0.04992904 -0.04535379 -0.049564954 -0.020083936
-0.02910819 0.015282249 -0.045058124 0.0004189035 0.0032807637 0.014425556 -0.03906063 -0.019781346

Linear_Decoder.bias f4 [24]
00000000: ba4b 013c 6e72 73bc 6c03 5e3c 7e85 0a3d
00000010: 6bc8 2abc d627 2b3d 285b 84bc 83f0 21bd
00000020: 9393 73bc 78f8 423d 1b40 28bd 9861 c9bc
00000030: 2038 413d 9a13 cc3c dd1c d4bc c32c cd3c
00000040: 5935 bd3c c3fe fabc c9a3 de3c 1675 4d3d
00000050: dbef 12bc ad92 3b3d fea8 38bd efdc 4a3d
0.00789159 -0.014858825 0.0135506205 0.033818714 -0.01042376 0.041786037 -0.016156748 -0.03953601
-0.014866727 0.04760024 -0.04107676 -0.02458267 0.047172666 0.02491169 -0.02589267 0.025045758
0.023096727 -0.030639058 0.027177708 0.05016049 -0.008968319 0.045794178 -0.04508304 0.049527105
