ESNLinear/checkpoints/ETTh1_336_24_ESNLinear_ETTh1_ftS_sl720_ll48_pl24_dm512_nh8_el2_dl1_df2048_fc1_ebtimeF_dtTrue_Exp_0/checkpoint.pth (torch, 209832 bytes, 4 tensors)

Linear_Seasonal.weight f4 [24, 720]
00000000: 4fb2 5abc 34a1 92bc 07c5 7fbc ee48 7bbc
00000010: 3396 43bc 06f4 28bc 9160 fbbb ce45 dcbb
00000020: 67b8 abbb e752 cabb ae9f d8bb 284d b8bb
00000030: 597a b2bb c574 44bb fe19 54bb 0028 12bb
00000040: 11f5 3dbb 5b0e 27bb a274 8bbb e3f8 a5ba
00000050: 8c07 9cba 24a4 8839 114b d53a 183d 913a
00000060: eab9 313b 9d25 053b 3c99 773b aba2 7b3b
00000070: cfe0 6c3b f290 7c3a 1c18 9b3a 87ce 163a
00000080: 9b91 e63a e677 4d3b a5ee 2c3b cd95 0e3b
00000090: aa23 013b 650f 6c3a 1855 283b 5a83 0f3b
000000a0: 9462 2e3b acd4 793a 6fdb 3e3b 25fd a43a
000000b0: 2e6f 8f3b 2907 b93a 00e7 213b 7f3c c23a
000000c0: a90d 713b 3431 263b df86 863b 8f75 533b
000000d0: be4c 6c3b b016 683b 685b 8c3b 0dd5 433b
000000e0: 4ee8 f63a bf65 093b 4f73 b23a e3e7 913a
000000f0: c214 333a 6ef4 b83a b679 2bba b5c6 b839
00000100: 5859 b7ba 3e26 da39 f485 77b9 1b17 953a
00000110: 714d 82ba e2ba cfb9 d598 77ba d3e9 2bba
00000120: 3e23 ce39 cfcd c13a c4a3 ce3a 8ff1 cf3a
00000130: e4a4 e73a a0ea 823a 877d 0c3b 674b a93a
00000140: 2077 333b c7de 253b 5573 063b 290c 453b
00000150: a6b4 4c3a 5717 303a 4698 59ba d84c d7b7
00000160: bc3c 0fba d481 d439 b69d 2eba 40a1 fd3a
00000170: bb22 c7ba 6dda a5b8 c9cd 8eba 9d0a 78ba
00000180: 6759 92b9 e41c 043b 33f0 c039 1991 9c3a
00000190: 0672 e93a 2d11 693b d96e 283b 418c 453b
000001a0: 0961 233b 9fb2 123b 8483 6e3a 5c96 9bba
000001b0: 150c eaba a981 afba 6c17 25ba 3623 a339
000001c0: 46ac c23a 10fe d839 7ce8 d33a c231 50ba
000001d0: b32a 223a e103 4bbb e01f ef36 328f 3abb
000001e0: 3cc0 893a d5f5 fbba a875 353b 88c8 08bb
000001f0: 303d 0a3b 0685 93ba 10cb 1a3a fbd6 0fba
00000200: 8d2e 8f39 412f 10bb f6da 1eba 7cef 1fbb
00000210: 7a2c e7ba 5f8c a7b9 5c4f 77b8 4855 853a
00000220: 0637 5c3a 71d6 783a 6b2f 793a f57d ac3a
00000230: 6d78 a43a 6b9a ff3a 5f0c ae3a a37f ef3a
00000240: 99fb b63a 2a26 b139 c64f ec3a 30a4 253a
00000250: 99d9 3d3a 751f 0ab9 159e 653a baed 123a
00000260: 0190 533a 4525 803a 17a8 f239 fa59 c3b9
00000270: 07d2 ab3a c931 e439 21b2 2f3b 12b5 77b9
00000280: f889 b13a 54ac 06bb d9db a03a b760 0dbb
00000290: 9079 7c3a 5308 f4ba c468 05ba e6d1 bfba
000002a0: 8e11 a03a 1efb f9ba f962 963a 7284 2bbb
000002b0: 5edf 8439 b2cd 20bb e268 a23a 7f7f edba
000002c0: e24d bf3a 6a80 64ba 2968 da38 2baf 8cba
000002d0: f424 35ba b5cc eaba 3e54 d5ba 8944 233a
000002e0: 1f25 2ab9 5035 e739 20b6 813a 014a 923a
000002f0: 5383 033b 900f 483b f155 813b 91cc 753b
00000300: aa89 613b 2ba8 2b3b 0470 8e3a 44d6 b538
00000310: a5ba 8b3a 3ab8 ca39 daaf 793a e519 9c3a
00000320: d9a7 c539 638e cc3a 6d00 42ba 22d4 c23a
00000330: b250 bfb9 4695 dc3a f802 193a 4794 d73a
00000340: 72fa 5e3a e407 753a 7478 ccb9 f9a0 1d3a
00000350: 7e85 9f38 e742 b839 26e7 6439 290d f2b8
00000360: 58ca 2239 1db5 65b9 c0b0 8136 63b1 5cba
00000370: 2884 bb39 0b92 883a dbb4 133a 168b 0b3b
00000380: 6162 8c3a 6536 813a e88e b5b7 e8d2 77b8
00000390: c290 52ba b407 d037 fb49 81ba 4e6b d33a
000003a0: 64b3 a3ba 5e8e b4b8 ed8a 87ba 21ba 49ba
000003b0: 1af9 dcba dd6e e138 c61f 8fba ea74 b4b9
000003c0: 316a b3ba af3e 8e3a b59a 95ba 31ca 32ba
000003d0: f4e4 91ba 00d8 a233 3360 3e3a b11b 043a
000003e0: 31d4 ae3a 3f9a 8c3a 67ec c73a 76e8 8239
000003f0: 5f82 263b abc7 dd3a 987f 083b 717d 64b9
-0.013348176 -0.017899133 -0.01561094 -0.015337212 -0.011937666 -0.010312086 -0.0076714237 -0.0067221886
-0.0052404883 -0.0061744335 -0.006610832 -0.005624432 -0.005446714 -0.0029976827 -0.0032364125 -0.0022301674
-0.0028985182 -0.0025490734 -0.004255847 -0.0012662675 -0.0011904105 0.00026062236 0.0016272982 0.001108083
0.002711887 0.0020316609 0.0037780544 0.0038396518 0.0036144739 0.00096346356 0.0011832747 0.0005752821
0.0017591001 0.0031351983 0.002638736 0.0021756769 0.0019705095 0.00090049795 0.0025685485 0.002189836
0.002660905 0.0009530287 0.0029122492 0.001258765 0.0043772673 0.0014116514 0.0024704337 0.0014819055
0.0036781824 0.0025358917 0.0041054334 0.0032266115 0.0036056484 0.0035413913 0.0042833574 0.0029881627
0.0018837543 0.0020965186 0.0013614687 0.001113173 0.0006831401 0.0014110932 -0.00065412687 0.00035243263
-0.0013988419 0.00041608693 -0.00023605657 0.0011374684 -0.0009941292 -0.00039621355 -0.0009445076 -0.0006557975
0.0003931764 0.0014786067 0.0015765359 0.0015864837 0.0017673043 0.0009988137 0.0021437125 0.0012916148
0.0027384236 0.0025309788 0.002051552 0.0030067062 0.0007808901 0.0006717345 -0.00083005836 -2.566578e-05
-0.0005464067 0.0004053252 -0.0006661074 0.0019350424 -0.0015192846 -7.908498e-05 -0.0010895069 -0.0009462031
-0.000279139 0.0020158822 0.00036800056 0.0011945098 0.0017810471 0.0035563216 0.0025700836 0.0030143412
0.0024929664 0.0022384298 0.0009098577 -0.0011870372 -0.0017856384 -0.0013390082 -0.00062977406 0.00031116017
0.0014852367 0.00041388022 0.0016167308 -0.0007941985 0.0006186172 -0.0030977654 7.126466e-06 -0.0028466699
0.0010509561 -0.0019223044 0.0027688537 -0.002087148 0.00210936 -0.0011254854 0.00059048925 -0.00054870517
0.00027309768 -0.0022000822 -0.00060598494 -0.0024404218 -0.0017637156 -0.00031957307 -5.89633e-05 0.001017251
0.0008400533 0.00094924035 0.0009505662 0.0013160097 0.0012548097 0.0019500976 0.0013278833 0.0018272292
0.001396048 0.00033788505 0.0018029145 0.00063187163 0.00072422024 -0.00013172424 0.0008759213 0.0005604882
0.00080704695 0.0009776732 0.00046283074 -0.00037260336 0.0013108858 0.00043524642 0.0026809054 -0.0002362321
0.0013545146 -0.0020549493 0.0012272551 -0.002157254 0.00096311513 -0.0018618203 -0.00050891587 -0.0014634698
0.0012212263 -0.0019072031 0.0011473588 -0.0026171473 0.00025343423 -0.0024536666 0.0012390877 -0.0018119662
0.0014595354 -0.0008716645 0.000104144514 -0.0010733356 -0.00069101085 -0.0017913791 -0.0016275716 0.0006228169
-0.00016226292 0.00044099474 0.0009896196 0.0011160971 0.002006729 0.0030526854 0.0039470126 0.0037505964
0.003441433 0.0026192765 0.0010867123 8.670663e-05 0.0010660483 0.00038665702 0.00095248 0.0011909573
0.00037699824 0.0015606399 -0.0007400576 0.0014864246 -0.00036490482 0.0016829155 0.0005836929 0.0016447388
0.0008505947 0.0009347184 -0.00038999657 0.00060130615 7.606576e-05 0.0003514506 0.00021829884 -0.000115419105
0.00015524903 -0.00021906612 3.865076e-06 -0.00084187667 0.00035765884 0.0010419501 0.00056345545 0.0021292618
0.0010710472 0.000985813 -2.1643427e-05 -5.908581e-05 -0.0008032435 2.479912e-05 -0.0009863967 0.0016130002
-0.0012489376 -8.609587e-05 -0.0010341086 -0.0007695277 -0.0016858906 0.00010749486 -0.0010919503 -0.00034419383
-0.0013688264 0.0010852421 -0.0011413904 -0.000682029 -0.0011130855 7.583003e-08 0.00072622596 0.0005039527
0.0013338384 0.0010727121 0.0015252949 0.0002496873 0.0025407297 0.0016920468 0.0020828005 -0.00021790505

Linear_Trend.weight f4 [24, 720]
00000000: 2741 91bb aa0d abba 5405 a639 b2aa 0a3a
00000010: 057f a93a 79c3 ad3a 7b9d c43a ee5a bd3a
00000020: 382e b33a 7135 b13a a25a 993a 6fb8 983a
00000030: f9dd 6e3a 0454 683a 480f 1c3a 1e64 143a
00000040: e882 9339 9ac3 8039 001c 77b6 8404 6eb7
00000050: 6ef0 5ab9 3eea 4ab9 e519 a8b9 4ff8 8ab9
00000060: 2dff a7b9 02d1 6cb9 50b3 6eb9 6e39 07b9
00000070: 2046 e5b8 ecc0 b1b7 98e2 9737 0972 cc38
00000080: ede6 1339 5444 5439 a047 8439 d58f 9c39
00000090: 9211 be39 4b52 d039 f247 f639 ec8d 023a
000000a0: 1eee 183a 0b74 203a 772e 3b3a 9da7 3f3a
000000b0: 8aab 563a c5d7 533a 34ee 663a 0205 5a3a
000000c0: 0ad0 643a f36b 4f3a 5edd 543a f5bc 373a
000000d0: 01f5 3a3a f1d6 1a3a f733 1b3a f8e3 e939
000000e0: f090 e739 b43d 9539 2057 9039 9c12 ed38
000000f0: f010 e938 7e23 60b8 92e1 6fb8 b517 72b9
00000100: 60d3 75b9 5a16 d8b9 ca8e d9b9 df64 1dba
00000110: 0932 21ba a84b 53ba 7dd3 52ba 03ba 7cba
00000120: 8832 72ba da47 88ba d712 7aba f859 86ba
00000130: f72e 6dba 7003 79ba 9d8b 52ba b901 58ba
00000140: 3552 2fba ec41 34ba 152b 0cba 6afa 10ba
00000150: 3bdf d4b9 decc e4b9 3d9a 9ab9 afa4 a6b9
00000160: acaf 2cb9 4a99 3bb9 144f e0b7 a1a7 3cb8
00000170: 42ee e938 f753 df38 aa73 8d39 d379 8039
00000180: 0ab6 c739 c0a0 b339 bc74 fb39 e74e ee39
00000190: ded0 1a3a 8c5b 123a eb7e 343a 8d53 283a
000001a0: 51d9 453a a6f8 383a a7a1 553a 5d18 453a
000001b0: b660 5d3a 016d 493a 1e8a 5e3a 3cc7 463a
000001c0: 351c 573a 1b7e 383a ceca 413a 7cd7 1f3a
000001d0: d399 253a 8919 023a 540a 083a 0b8f cd39
000001e0: b9b1 de39 aa63 a239 a639 b039 e8ab 5a39
000001f0: acf4 5c39 6ebe 9d38 715c 8f38 3e10 93b8
00000200: b346 a9b8 6efc 5eb9 05e2 55b9 be62 a2b9
00000210: 42fa 8db9 b8cc b1b9 9a5f 90b9 e018 a9b9
00000220: 5b65 80b9 954c 93b9 8922 47b9 85a4 65b9
00000230: 6d52 0ab9 cc3d 1ab9 b45c 4cb8 b243 5bb8
00000240: 0410 8038 4b70 6838 7b12 1d39 ac67 0339
00000250: 888f 4d39 be41 1e39 7c05 5b39 13e1 2239
00000260: 272b 5839 10c6 1c39 e330 5d39 7d77 2739
00000270: f6c5 6739 507d 3539 bd67 7439 9a53 4039
00000280: b361 8139 edfe 5139 c1f5 8d39 f4ce 7239
00000290: a779 a439 5ebc 9539 d2c6 ba39 efdf a039
000002a0: d839 b839 65c6 8a39 4080 9a39 6c2c 6839
000002b0: 0746 8e39 1cfa 6439 84f7 9739 aca6 7e39
000002c0: 546c a439 abbd 8939 d2f5 b139 393c 8b39
000002d0: 76f0 a139 e86a 5c39 62cb 7c39 c8ec 0439
000002e0: 585f 1e39 110f b737 ba62 1938 5175 dfb8
000002f0: 326d c9b8 e059 78b9 6450 53b9 5c4a a1b9
00000300: cb68 7ab9 45e3 a6b9 6003 6ab9 f9d0 99b9
00000310: f612 45b9 da11 83b9 d17c 17b9 46fd 5db9
00000320: bcdc e9b8 ac20 45b9 dcc0 d2b8 6d22 50b9
00000330: 3011 efb8 3528 52b9 faee eab8 b03f 59b9
00000340: 1655 f8b8 0a90 5cb9 01ae f5b8 5bc8 4cb9
00000350: f3ce bbb8 ba74 28b9 e472 71b8 56ee 17b9
00000360: 909f 94b8 1c35 3cb9 c1a0 06b9 59e7 82b9
00000370: c007 56b9 8946 adb9 99b6 92b9 229c ccb9
00000380: 9fcf a5b9 23e2 cfb9 2680 9db9 53ff beb9
00000390: 310c 81b9 fe3f 92b9 a458 19b9 3cde 37b9
000003a0: a250 2cb8 b4db 8db8 1889 9a38 c0ce 6638
000003b0: 1716 4e39 6aa3 3e39 4fad ac39 d5cb a639
000003c0: a39f f239 fe39 e839 8b91 173a 6e24 123a
000003d0: 440f 353a fd99 2e3a 4151 503a fa53 443a
000003e0: 789b 603a 0885 4e3a 9ca1 633a 5a7d 4b3a
000003f0: ed1e 5c3a c62e 403a ee76 4c3a 02ea 2d3a
-0.0044328156 -0.0013050337 0.00031665957 0.0005289718 0.0012931532 0.0013257108 0.0015000546 0.0014446655
0.001367039 0.0013519955 0.0011699984 0.0011651645 0.0009112056 0.0008862617 0.0005953205 0.00056606706
0.00028135558 0.00024559797 -3.6822166e-06 -1.4186957e-05 -0.00020879667 -0.00019351483 -0.0003206275 -0.00026506415
-0.00032042843 -0.00022584575 -0.00022764248 -0.00012895997 -0.00010932633 -2.118988e-05 1.8106119e-05 9.748719e-05
0.00014105039 0.0002024335 0.00025230367 0.00029861802 0.00036252715 0.00039734165 0.0004697438 0.00049802545
0.0005833822 0.00061208074 0.00071404077 0.0007311048 0.00081890135 0.00080811634 0.0008809299 0.0008316786
0.000872851 0.0007912509 0.00081201445 0.0007009053 0.00071318453 0.00059066626 0.0005920524 0.00044611073
0.0004416774 0.00028465467 0.00027530733 0.00011304507 0.00011113461 -5.3438816e-05 -5.719212e-05 -0.0002308775
-0.00023443764 -0.00041215384 -0.00041495851 -0.00060041057 -0.00061491184 -0.0008060285 -0.00080423785 -0.0009640755
-0.0009239097 -0.001039739 -0.00095395505 -0.0010250201 -0.0009047831 -0.00094991084 -0.0008031668 -0.0008240003
-0.000668797 -0.0006876278 -0.0005346996 -0.00055304787 -0.0004060211 -0.00043640187 -0.00029488085 -0.00031784686
-0.00016468641 -0.00017890814 -2.6739704e-05 -4.497881e-05 0.00011154685 0.00010649108 0.00026979792 0.0002450483
0.00038091867 0.0003426131 0.00047961425 0.00045453684 0.00059057574 0.00055830996 0.00068853673 0.00064211414
0.0007547336 0.00070560945 0.0008149393 0.0007518584 0.0008444892 0.00076837844 0.0008489209 0.0007582789
0.00082058023 0.0007037834 0.0007392586 0.00060974783 0.0006317172 0.00049629115 0.00051895273 0.00039207222
0.00042475553 0.00030973303 0.00033612287 0.0002085414 0.00021071982 7.521814e-05 6.83599e-05 -7.0125316e-05
-8.071717e-05 -0.00021265607 -0.00020397462 -0.00030972617 -0.00027080072 -0.00033912598 -0.0002753705 -0.00032252725
-0.00024489578 -0.00028095083 -0.00018990984 -0.0002190043 -0.00013191412 -0.00014709606 -4.8723727e-05 -5.2276715e-05
6.106499e-05 5.541769e-05 0.00014979571 0.00012531754 0.00019603793 0.00015092545 0.0002088751 0.0001553337
0.00020615441 0.00014951103 0.00021094414 0.00015970874 0.00022103623 0.00017308188 0.00023308299 0.00018341691
0.0002467759 0.0002002676 0.00027076717 0.00023156015 0.00031371156 0.0002855984 0.00035624817 0.00030684422
0.00035138312 0.00026469227 0.00029468723 0.00022141793 0.00027136525 0.00021836947 0.00028985378 0.00024285418
0.00031361228 0.0002627199 0.0003394322 0.00026557015 0.0003088747 0.0002102066 0.00024108359 0.00012676709
0.00015103573 2.1822316e-05 3.656999e-05 -0.000106553205 -9.604766e-05 -0.00023684604 -0.00020152476 -0.00030763715
-0.00023880896 -0.00031831316 -0.00022317236 -0.0002933813 -0.00018794448 -0.00024999568 -0.0001444698 -0.00021170554
-0.00011151421 -0.00018799555 -0.00010049503 -0.0001984925 -0.000113996095 -0.00020042139 -0.00011202502 -0.00020718458
-0.0001184141 -0.00021034494 -0.00011714921 -0.00019529594 -8.955402e-05 -0.00016065213 -5.7565878e-05 -0.00014489269
-7.086911e-05 -0.00017948862 -0.00012839121 -0.000249679 -0.00020411517 -0.00033049684 -0.00027983336 -0.0003902624
-0.00031625942 -0.00039650602 -0.00030040852 -0.00036429855 -0.0002461388 -0.00027894968 -0.00014624238 -0.00017535029
-4.108309e-05 -6.764327e-05 7.368828e-05 5.5028824e-05 0.0001965392 0.00018180688 0.0003293552 0.00031813854
0.00046276776 0.00044293696 0.00057818805 0.00055748865 0.0006906877 0.0006660519 0.0007946678 0.000748932
0.00085680885 0.00078780996 0.00086834445 0.0007762514 0.0008396942 0.00073311885 0.00077997043 0.0006634296

Linear_Decoder.weight f4 [24, 720]
00000000: 56ff 2a3c 2fd2 4d3b b7b0 a7bc c422 043d
00000010: c39e 13bc eb63 f5bc 8698 763c fce4 1e3b
00000020: 0eed 1ebc 3b67 f23c 6bf2 84bc 10bc 553c
00000030: 34bc d63b 5617 093d 3348 d1bc d300 fabc
00000040: f2c8 cfbc 7f56 e2bc 49e1 dbb9 6037 433b
00000050: baa0 9c3a e192 bbbc 162b c23b a517 31bc
00000060: 86b0 f639 a32c b0bc 48f7 323c 6b73 dfbc
00000070: 47d9 f13c 10a8 f13b daba 04bd c375 03bd
00000080: 328b 13bd a1ee e0ba 9f1c 453c 1187 55bc
00000090: b024 09bd 5115 113d 7818 0cbd ba4f a4bc
000000a0: a8fe 8139 dc4e 51bc 30ca 2d3c e4eb 133d
000000b0: f756 85bc 1a50 f1bc 93d4 273c 9acc fe3c
000000c0: 8352 a8bc fa4b 3fbb a3b2 cc3c d62f a8bc
000000d0: d645 af3a ae66 303c ad4d 0abc 6789 0c3c
000000e0: a27b 00bd 1e45 423c 0b4b 47bc d3fd db3c
000000f0: 49cf 853c 167e 03bd bb84 09bb 3172 d23c
00000100: 5980 543c 0c15 adbc 14df b7bc 1280 cf3c
00000110: f55c 14b9 365d bd3c 29a8 83bc 98c5 12bd
00000120: 3ae0 863c 7d5a 0f3d 4179 47bc 4171 ba3c
00000130: 3c0e 83bc d661 c43c 874d 9e3c 2056 033d
00000140: a75c e6bc 575e 57bc cd54 ac3b 2116 23bc
00000150: 95e4 933b e50c 013d e1a8 923c 4ffd 883c
00000160: 1d1a ee3c 2767 2fbb 5780 173d e100 ebbc
00000170: c1c3 e7bc 26be cb3b 915f 2d3b 5c68 d43c
00000180: 83f4 7cbc 9a4b 9bbc a322 433c 967c 543c
00000190: 2126 063b f920 17bc 1f02 f23c 44e5 083d
000001a0: 05fd bc3b b175 c5bc 931b 433c b80b dfbc
000001b0: 6747 8c3b d483 073d 13fe 16bd bd8c 113d
000001c0: 2339 d3bc 14d0 a83c 068c e3bc acb2 373c
000001d0: afcd 513c 6b57 92bb 3aed 923c f983 173c
000001e0: d6c6 c7bc 9188 a73c f90c 09bd e85c ca3c
000001f0: 8d5b 8a3c bcb1 153c 644f 84bc cb3b 0c3d
00000200: 11ba 013d 0e12 e4bc 678d ed3c 301b 1d3b
00000210: ea35 aa3c 6322 e2bc 5ade a8bc 4e4a 073d
00000220: 385e 353c 4f5c 17bd cf62 003d 9677 ffbc
00000230: 8cb9 f33c 65c4 d23c 4886 fcbc 3e84 82bc
00000240: b256 84bc dd5f a83b dd17 99bb 3551 74ba
00000250: 82c8 3fbc 2d50 a03c 72c5 983c 5fe7 8b3c
00000260: 2462 66bc e745 e73b 3371 cf3c 3c48 e4bb
00000270: 9248 0f3d 5965 e33c d339 6fbc e711 013d
00000280: 9224 a3bc 620f 50bc 4070 16bd dd7f bb3c
00000290: e6fe 163d 5b04 34bc f5d3 523c 2935 d4bb
000002a0: 2b0c 4fbc 895e 0ebd 5989 fc3b 672c 2cbc
000002b0: 5ce6 cf3c 44e1 853c 95ad 49bc ea67 4b3b
000002c0: 6413 9a3c 039d 12bd da76 bf3c c6cd caba
000002d0: b794 ce3c e877 7c3b 8d91 d5bc 7a43 15bd
000002e0: 6e56 e23c 8c0e 05bb a3e0 71bc 6ea4 c9bc
000002f0: 47b4 fb3c 8397 40bb 2d51 d43c 1c16 89bc
00000300: 4479 063d 77d8 16bc ab27 b9bc e242 d33b
00000310: 6dba a43c 706e e1bc 5076 d3bc 5d9c 9cbc
00000320: 2887 c33c 6fa4 503b 8069 b9bc 0482 62bb
00000330: 72ed 8a3b cc9d d3bc a398 f13c 44ce 1739
00000340: 01c5 173d 3f0e 16bd 5304 9ebc 14d8 1dbc
00000350: 6d72 02bc eb55 e83c 0338 0f3d 2e51 b73b
00000360: cd58 f43c e393 3abc b425 923c 5bdc 463c
00000370: 079f f7bc 25cf 99bc b59a e93c ed95 0abd
00000380: 6f20 00bd 337e c6b9 9d08 9a3c bcf3 adbc
00000390: 5073 fc3c d1f3 9ebb 4614 833c f5b0 8dbc
000003a0: 1604 3f3c eb51 8bbb 5016 8339 a459 a83b
000003b0: b26b b2bc a0dd c8bb 4ccc c2bc 2f36 1b3c
000003c0: 355c 0f3d 7050 bd3c 4914 f93c 6b4e 96bc
000003d0: 457e 093d ca02 bd3c f69d 56bc 8784 a9bc
000003e0: ece3 fa3a 301b f43c 8b8a a3bc 0fca 0d3d
000003f0: fb07 e2bc 758e 9e3c 56c0 82bc e866 cbbc
0.010436853 0.0031405797 -0.020470006 0.032259718 -0.00901002 -0.029954871 0.015051013 0.0024245372
-0.009700073 0.02959024 -0.016228875 0.013045326 0.0065531973 0.03346952 -0.025547123 -0.030517971
-0.025364373 -0.027629135 -0.00041938786 0.0029787645 0.0011949756 -0.022897186 0.0059255464 -0.01080886
0.00047052297 -0.02150566 0.010923214 -0.027276715 0.029522551 0.007374771 -0.032404758 -0.03209473
-0.03602142 -0.0017160961 0.01203075 -0.013032691 -0.033482254 0.03542072 -0.034203023 -0.020057548
0.0002479453 -0.012775149 0.010607287 0.036113635 -0.01627682 -0.02945714 0.010243553 0.031103421
-0.020547157 -0.0029189573 0.024987524 -0.020530622 0.0013372253 0.010766668 -0.008441371 0.008577681
-0.031367905 0.011857299 -0.012163888 0.026854431 0.016334193 -0.032102667 -0.0020983655 0.025689216
0.012970054 -0.0211282 -0.02244524 0.025329623 -0.00014149009 0.023115736 -0.016071396 -0.03583297
0.016464341 0.034998406 -0.012174905 0.022759082 -0.015997998 0.023972433 0.019324077 0.032064557
-0.028120352 -0.013145051 0.0052591325 -0.009954006 0.004513333 0.031506438 0.017902793 0.01672235
0.029065186 -0.0026764364 0.03698763 -0.028686943 -0.028291585 0.006217736 0.0026454667 0.025928669
-0.0154391555 -0.018956948 0.0119101135 0.012969157 0.0020469504 -0.00922417 0.029542027 0.03342177
0.005767467 -0.024103971 0.01190843 -0.027227268 0.0042809728 0.033084705 -0.036863398 0.03553461
-0.02578408 0.020607032 -0.02777673 0.011212032 0.012805386 -0.0044659874 0.017935384 0.009247773
-0.024386805 0.020450862 -0.033459637 0.024702504 0.016889358 0.009136613 -0.016151138 0.03423671
0.031671587 -0.02784064 0.02899809 0.0023972504 0.020777661 -0.027604287 -0.020613838 0.033029847
0.011069827 -0.036953267 0.03134423 -0.031184953 0.029751562 0.025728414 -0.030825749 -0.015932199
-0.01615462 0.005138381 -0.004672034 -0.0009319962 -0.01170552 0.01956948 0.018648837 0.0170781
-0.0140614845 0.0070578936 0.025322532 -0.006966619 0.034981318 0.027758287 -0.014601189 0.031511214
-0.019914899 -0.01269898 -0.036728144 0.022888118 0.036864184 -0.010987367 0.012867917 -0.0064760637
-0.012637178 -0.034758125 0.007706803 -0.010508633 0.025378399 0.016342767 -0.012309452 0.003103728
0.018808074 -0.03579427 0.023372103 -0.0015472702 0.025217397 0.0038523618 -0.02607038 -0.036441304
0.027629104 -0.002030286 -0.01476303 -0.024614539 0.030725611 -0.0029387183 0.025917614 -0.016734175
0.03283049 -0.009206883 -0.022601923 0.006447182 0.020108426 -0.027518481 -0.025813252 -0.019117529
0.023868158 0.0031836291 -0.022633314 -0.0034562359 0.0042397315 -0.02583208 0.029491728 0.00014477322
0.037053112 -0.03663468 -0.019289171 -0.009634037 -0.007961852 0.028361281 0.034965526 0.005594394
0.0298275 -0.011387798 0.017840244 0.012137498 -0.030227197 -0.018775532 0.028516153 -0.033834387
-0.03128093 -0.0003785953 0.018802935 -0.021234386 0.030816704 -0.0048508425 0.016000878 -0.017296294
0.011658689 -0.0042517087 0.0002500289 0.005137639 -0.021779869 -0.0061299354 -0.023779057 0.009473368
0.035000045 0.023109645 0.03040518 -0.01834794 0.033567686 0.023072619 -0.013099184 -0.020693077
0.0019141412 0.02979812 -0.019963523 0.034616526 -0.027591696 0.019355038 -0.015960854 -0.024829343

Linear_Decoder.bias f4 [24]
00000000: 4946 dd3c 770e 873c 5460 0e3d 3aae ed3c
00000010: 2f8e 16bd 4162 3b3c 6fb0 73bc 13c7 3abc
00000020: 6ba2 c83c cb18 0c3d ffa8 dcbc 4acb 323c
00000030: 3d0c b5bc 1e6b 37bb 0adb 83bc 3fe6 b4bc
00000040: 8fb5 0e3d 9488 bdbc 7c71 aabc b8b1 9cba
00000050: 49d9 b83c c10d f43b bb52 e6ba 2541 eabb
0.027011054 0.01648639 0.034759834 0.029013742 -0.03675669 0.011437 -0.014873608 -0.011400002
0.02449151 0.034203332 -0.026936052 0.010912726 -0.022100562 -0.002798743 -0.016095657 -0.022082446
0.034841117 -0.023136415 -0.020806067 -0.001195482 0.022564547 0.0074479287 -0.0017572263 -0.007148879
